…
INFO:fvcore.common.checkpoint:[Checkpointer] Loading from out/detector/detector_mask_rcnn/model_final.pth ...
WARNING:fvcore.common.checkpoint:The checkpoint state_dict contains keys that are not used by the model:
  [35mpixel_mean[0m
  [35mpixel_std[0m
  [35mproposal_generator.anchor_generator.cell_anchors.{0, 1, 2, 3, 4}[0m
INFO:test:Pano3D(
  (layout_estimation): HorizonNet(
    (horizon_net): DataParallel(
      (module): HorizonNetNoPostProcess(
        (feature_extractor): Resnet(
          (encoder): ResNet(
            (conv1): Sequential(
              (0): LR_PAD()
              (1): Conv2d(3, 64, kernel_size=(7, 7), stride=(2, 2), padding=(3, 0), bias=False)
            )
            (bn1): BatchNorm2d(64, eps=1e-05, momentum=0.1, affine=True, track_running_stats=True)
            (relu): ReLU(inplace=True)
            (maxpool): MaxPool2d(kernel_size=3, stride=2, padding=1, dilation=1, ceil_mode=False)
            (layer1): Sequential(
              (0): Bottleneck(
                (conv1): Conv2d(64, 64, kernel_size=(1, 1), stride=(1, 1), bias=False)
                (bn1): BatchNorm2d(64, eps=1e-05, momentum=0.1, affine=True, track_running_stats=True)
                (conv2): Sequential(
                  (0): LR_PAD()
                  (1): Conv2d(64, 64, kernel_size=(3, 3), stride=(1, 1), padding=(1, 0), bias=False)
                )
                (bn2): BatchNorm2d(64, eps=1e-05, momentum=0.1, affine=True, track_running_stats=True)
                (conv3): Conv2d(64, 256, kernel_size=(1, 1), stride=(1, 1), bias=False)
                (bn3): BatchNorm2d(256, eps=1e-05, momentum=0.1, affine=True, track_running_stats=True)
                (relu): ReLU(inplace=True)
                (downsample): Sequential(
                  (0): Conv2d(64, 256, kernel_size=(1, 1), stride=(1, 1), bias=False)
                  (1): BatchNorm2d(256, eps=1e-05, momentum=0.1, affine=True, track_running_stats=True)
                )
              )
              (1): Bottleneck(
                (conv1): Conv2d(256, 64, kernel_size=(1, 1), stride=(1, 1), bias=False)
                (bn1): BatchNorm2d(64, eps=1e-05, momentum=0.1, affine=True, track_running_stats=True)
                (conv2): Sequential(
                  (0): LR_PAD()
                  (1): Conv2d(64, 64, kernel_size=(3, 3), stride=(1, 1), padding=(1, 0), bias=False)
                )
                (bn2): BatchNorm2d(64, eps=1e-05, momentum=0.1, affine=True, track_running_stats=True)
                (conv3): Conv2d(64, 256, kernel_size=(1, 1), stride=(1, 1), bias=False)
                (bn3): BatchNorm2d(256, eps=1e-05, momentum=0.1, affine=True, track_running_stats=True)
                (relu): ReLU(inplace=True)
              )
              (2): Bottleneck(
                (conv1): Conv2d(256, 64, kernel_size=(1, 1), stride=(1, 1), bias=False)
                (bn1): BatchNorm2d(64, eps=1e-05, momentum=0.1, affine=True, track_running_stats=True)
                (conv2): Sequential(
                  (0): LR_PAD()
                  (1): Conv2d(64, 64, kernel_size=(3, 3), stride=(1, 1), padding=(1, 0), bias=False)
                )
                (bn2): BatchNorm2d(64, eps=1e-05, momentum=0.1, affine=True, track_running_stats=True)
                (conv3): Conv2d(64, 256, kernel_size=(1, 1), stride=(1, 1), bias=False)
                (bn3): BatchNorm2d(256, eps=1e-05, momentum=0.1, affine=True, track_running_stats=True)
                (relu): ReLU(inplace=True)
              )
            )
            (layer2): Sequential(
              (0): Bottleneck(
                (conv1): Conv2d(256, 128, kernel_size=(1, 1), stride=(1, 1), bias=False)
                (bn1): BatchNorm2d(128, eps=1e-05, momentum=0.1, affine=True, track_running_stats=True)
                (conv2): Sequential(
                  (0): LR_PAD()
                  (1): Conv2d(128, 128, kernel_size=(3, 3), stride=(2, 2), padding=(1, 0), bias=False)
                )
                (bn2): BatchNorm2d(128, eps=1e-05, momentum=0.1, affine=True, track_running_stats=True)
                (conv3): Conv2d(128, 512, kernel_size=(1, 1), stride=(1, 1), bias=False)
                (bn3): BatchNorm2d(512, eps=1e-05, momentum=0.1, affine=True, track_running_stats=True)
                (relu): ReLU(inplace=True)
                (downsample): Sequential(
                  (0): Conv2d(256, 512, kernel_size=(1, 1), stride=(2, 2), bias=False)
                  (1): BatchNorm2d(512, eps=1e-05, momentum=0.1, affine=True, track_running_stats=True)
                )
              )
              (1): Bottleneck(
                (conv1): Conv2d(512, 128, kernel_size=(1, 1), stride=(1, 1), bias=False)
                (bn1): BatchNorm2d(128, eps=1e-05, momentum=0.1, affine=True, track_running_stats=True)
                (conv2): Sequential(
                  (0): LR_PAD()
                  (1): Conv2d(128, 128, kernel_size=(3, 3), stride=(1, 1), padding=(1, 0), bias=False)
                )
                (bn2): BatchNorm2d(128, eps=1e-05, momentum=0.1, affine=True, track_running_stats=True)
                (conv3): Conv2d(128, 512, kernel_size=(1, 1), stride=(1, 1), bias=False)
                (bn3): BatchNorm2d(512, eps=1e-05, momentum=0.1, affine=True, track_running_stats=True)
                (relu): ReLU(inplace=True)
              )
              (2): Bottleneck(
                (conv1): Conv2d(512, 128, kernel_size=(1, 1), stride=(1, 1), bias=False)
                (bn1): BatchNorm2d(128, eps=1e-05, momentum=0.1, affine=True, track_running_stats=True)
                (conv2): Sequential(
                  (0): LR_PAD()
                  (1): Conv2d(128, 128, kernel_size=(3, 3), stride=(1, 1), padding=(1, 0), bias=False)
                )
                (bn2): BatchNorm2d(128, eps=1e-05, momentum=0.1, affine=True, track_running_stats=True)
                (conv3): Conv2d(128, 512, kernel_size=(1, 1), stride=(1, 1), bias=False)
                (bn3): BatchNorm2d(512, eps=1e-05, momentum=0.1, affine=True, track_running_stats=True)
                (relu): ReLU(inplace=True)
              )
              (3): Bottleneck(
                (conv1): Conv2d(512, 128, kernel_size=(1, 1), stride=(1, 1), bias=False)
                (bn1): BatchNorm2d(128, eps=1e-05, momentum=0.1, affine=True, track_running_stats=True)
                (conv2): Sequential(
                  (0): LR_PAD()
                  (1): Conv2d(128, 128, kernel_size=(3, 3), stride=(1, 1), padding=(1, 0), bias=False)
                )
                (bn2): BatchNorm2d(128, eps=1e-05, momentum=0.1, affine=True, track_running_stats=True)
                (conv3): Conv2d(128, 512, kernel_size=(1, 1), stride=(1, 1), bias=False)
                (bn3): BatchNorm2d(512, eps=1e-05, momentum=0.1, affine=True, track_running_stats=True)
                (relu): ReLU(inplace=True)
              )
            )
            (layer3): Sequential(
              (0): Bottleneck(
                (conv1): Conv2d(512, 256, kernel_size=(1, 1), stride=(1, 1), bias=False)
                (bn1): BatchNorm2d(256, eps=1e-05, momentum=0.1, affine=True, track_running_stats=True)
                (conv2): Sequential(
                  (0): LR_PAD()
                  (1): Conv2d(256, 256, kernel_size=(3, 3), stride=(2, 2), padding=(1, 0), bias=False)
                )
                (bn2): BatchNorm2d(256, eps=1e-05, momentum=0.1, affine=True, track_running_stats=True)
                (conv3): Conv2d(256, 1024, kernel_size=(1, 1), stride=(1, 1), bias=False)
                (bn3): BatchNorm2d(1024, eps=1e-05, momentum=0.1, affine=True, track_running_stats=True)
                (relu): ReLU(inplace=True)
                (downsample): Sequential(
                  (0): Conv2d(512, 1024, kernel_size=(1, 1), stride=(2, 2), bias=False)
                  (1): BatchNorm2d(1024, eps=1e-05, momentum=0.1, affine=True, track_running_stats=True)
                )
              )
              (1): Bottleneck(
                (conv1): Conv2d(1024, 256, kernel_size=(1, 1), stride=(1, 1), bias=False)
                (bn1): BatchNorm2d(256, eps=1e-05, momentum=0.1, affine=True, track_running_stats=True)
                (conv2): Sequential(
                  (0): LR_PAD()
                  (1): Conv2d(256, 256, kernel_size=(3, 3), stride=(1, 1), padding=(1, 0), bias=False)
                )
                (bn2): BatchNorm2d(256, eps=1e-05, momentum=0.1, affine=True, track_running_stats=True)
                (conv3): Conv2d(256, 1024, kernel_size=(1, 1), stride=(1, 1), bias=False)
                (bn3): BatchNorm2d(1024, eps=1e-05, momentum=0.1, affine=True, track_running_stats=True)
                (relu): ReLU(inplace=True)
              )
              (2): Bottleneck(
                (conv1): Conv2d(1024, 256, kernel_size=(1, 1), stride=(1, 1), bias=False)
                (bn1): BatchNorm2d(256, eps=1e-05, momentum=0.1, affine=True, track_running_stats=True)
                (conv2): Sequential(
                  (0): LR_PAD()
                  (1): Conv2d(256, 256, kernel_size=(3, 3), stride=(1, 1), padding=(1, 0), bias=False)
                )
                (bn2): BatchNorm2d(256, eps=1e-05, momentum=0.1, affine=True, track_running_stats=True)
                (conv3): Conv2d(256, 1024, kernel_size=(1, 1), stride=(1, 1), bias=False)
                (bn3): BatchNorm2d(1024, eps=1e-05, momentum=0.1, affine=True, track_running_stats=True)
                (relu): ReLU(inplace=True)
              )
              (3): Bottleneck(
                (conv1): Conv2d(1024, 256, kernel_size=(1, 1), stride=(1, 1), bias=False)
                (bn1): BatchNorm2d(256, eps=1e-05, momentum=0.1, affine=True, track_running_stats=True)
                (conv2): Sequential(
                  (0): LR_PAD()
                  (1): Conv2d(256, 256, kernel_size=(3, 3), stride=(1, 1), padding=(1, 0), bias=False)
                )
                (bn2): BatchNorm2d(256, eps=1e-05, momentum=0.1, affine=True, track_running_stats=True)
                (conv3): Conv2d(256, 1024, kernel_size=(1, 1), stride=(1, 1), bias=False)
                (bn3): BatchNorm2d(1024, eps=1e-05, momentum=0.1, affine=True, track_running_stats=True)
                (relu): ReLU(inplace=True)
              )
              (4): Bottleneck(
                (conv1): Conv2d(1024, 256, kernel_size=(1, 1), stride=(1, 1), bias=False)
                (bn1): BatchNorm2d(256, eps=1e-05, momentum=0.1, affine=True, track_running_stats=True)
                (conv2): Sequential(
                  (0): LR_PAD()
                  (1): Conv2d(256, 256, kernel_size=(3, 3), stride=(1, 1), padding=(1, 0), bias=False)
                )
                (bn2): BatchNorm2d(256, eps=1e-05, momentum=0.1, affine=True, track_running_stats=True)
                (conv3): Conv2d(256, 1024, kernel_size=(1, 1), stride=(1, 1), bias=False)
                (bn3): BatchNorm2d(1024, eps=1e-05, momentum=0.1, affine=True, track_running_stats=True)
                (relu): ReLU(inplace=True)
              )
              (5): Bottleneck(
                (conv1): Conv2d(1024, 256, kernel_size=(1, 1), stride=(1, 1), bias=False)
                (bn1): BatchNorm2d(256, eps=1e-05, momentum=0.1, affine=True, track_running_stats=True)
                (conv2): Sequential(
                  (0): LR_PAD()
                  (1): Conv2d(256, 256, kernel_size=(3, 3), stride=(1, 1), padding=(1, 0), bias=False)
                )
                (bn2): BatchNorm2d(256, eps=1e-05, momentum=0.1, affine=True, track_running_stats=True)
                (conv3): Conv2d(256, 1024, kernel_size=(1, 1), stride=(1, 1), bias=False)
                (bn3): BatchNorm2d(1024, eps=1e-05, momentum=0.1, affine=True, track_running_stats=True)
                (relu): ReLU(inplace=True)
              )
            )
            (layer4): Sequential(
              (0): Bottleneck(
                (conv1): Conv2d(1024, 512, kernel_size=(1, 1), stride=(1, 1), bias=False)
                (bn1): BatchNorm2d(512, eps=1e-05, momentum=0.1, affine=True, track_running_stats=True)
                (conv2): Sequential(
                  (0): LR_PAD()
                  (1): Conv2d(512, 512, kernel_size=(3, 3), stride=(2, 2), padding=(1, 0), bias=False)
                )
                (bn2): BatchNorm2d(512, eps=1e-05, momentum=0.1, affine=True, track_running_stats=True)
                (conv3): Conv2d(512, 2048, kernel_size=(1, 1), stride=(1, 1), bias=False)
                (bn3): BatchNorm2d(2048, eps=1e-05, momentum=0.1, affine=True, track_running_stats=True)
                (relu): ReLU(inplace=True)
                (downsample): Sequential(
                  (0): Conv2d(1024, 2048, kernel_size=(1, 1), stride=(2, 2), bias=False)
                  (1): BatchNorm2d(2048, eps=1e-05, momentum=0.1, affine=True, track_running_stats=True)
                )
              )
              (1): Bottleneck(
                (conv1): Conv2d(2048, 512, kernel_size=(1, 1), stride=(1, 1), bias=False)
                (bn1): BatchNorm2d(512, eps=1e-05, momentum=0.1, affine=True, track_running_stats=True)
                (conv2): Sequential(
                  (0): LR_PAD()
                  (1): Conv2d(512, 512, kernel_size=(3, 3), stride=(1, 1), padding=(1, 0), bias=False)
                )
                (bn2): BatchNorm2d(512, eps=1e-05, momentum=0.1, affine=True, track_running_stats=True)
                (conv3): Conv2d(512, 2048, kernel_size=(1, 1), stride=(1, 1), bias=False)
                (bn3): BatchNorm2d(2048, eps=1e-05, momentum=0.1, affine=True, track_running_stats=True)
                (relu): ReLU(inplace=True)
              )
              (2): Bottleneck(
                (conv1): Conv2d(2048, 512, kernel_size=(1, 1), stride=(1, 1), bias=False)
                (bn1): BatchNorm2d(512, eps=1e-05, momentum=0.1, affine=True, track_running_stats=True)
                (conv2): Sequential(
                  (0): LR_PAD()
                  (1): Conv2d(512, 512, kernel_size=(3, 3), stride=(1, 1), padding=(1, 0), bias=False)
                )
                (bn2): BatchNorm2d(512, eps=1e-05, momentum=0.1, affine=True, track_running_stats=True)
                (conv3): Conv2d(512, 2048, kernel_size=(1, 1), stride=(1, 1), bias=False)
                (bn3): BatchNorm2d(2048, eps=1e-05, momentum=0.1, affine=True, track_running_stats=True)
                (relu): ReLU(inplace=True)
              )
            )
          )
        )
        (reduce_height_module): GlobalHeightStage(
          (ghc_lst): ModuleList(
            (0): GlobalHeightConv(
              (layer): Sequential(
                (0): ConvCompressH(
                  (layers): Sequential(
                    (0): Sequential(
                      (0): LR_PAD()
                      (1): Conv2d(256, 128, kernel_size=(3, 3), stride=(2, 1), padding=(1, 0))
                    )
                    (1): BatchNorm2d(128, eps=1e-05, momentum=0.1, affine=True, track_running_stats=True)
                    (2): ReLU(inplace=True)
                  )
                )
                (1): ConvCompressH(
                  (layers): Sequential(
                    (0): Sequential(
                      (0): LR_PAD()
                      (1): Conv2d(128, 128, kernel_size=(3, 3), stride=(2, 1), padding=(1, 0))
                    )
                    (1): BatchNorm2d(128, eps=1e-05, momentum=0.1, affine=True, track_running_stats=True)
                    (2): ReLU(inplace=True)
                  )
                )
                (2): ConvCompressH(
                  (layers): Sequential(
                    (0): Sequential(
                      (0): LR_PAD()
                      (1): Conv2d(128, 64, kernel_size=(3, 3), stride=(2, 1), padding=(1, 0))
                    )
                    (1): BatchNorm2d(64, eps=1e-05, momentum=0.1, affine=True, track_running_stats=True)
                    (2): ReLU(inplace=True)
                  )
                )
                (3): ConvCompressH(
                  (layers): Sequential(
                    (0): Sequential(
                      (0): LR_PAD()
                      (1): Conv2d(64, 32, kernel_size=(3, 3), stride=(2, 1), padding=(1, 0))
                    )
                    (1): BatchNorm2d(32, eps=1e-05, momentum=0.1, affine=True, track_running_stats=True)
                    (2): ReLU(inplace=True)
                  )
                )
              )
            )
            (1): GlobalHeightConv(
              (layer): Sequential(
                (0): ConvCompressH(
                  (layers): Sequential(
                    (0): Sequential(
                      (0): LR_PAD()
                      (1): Conv2d(512, 256, kernel_size=(3, 3), stride=(2, 1), padding=(1, 0))
                    )
                    (1): BatchNorm2d(256, eps=1e-05, momentum=0.1, affine=True, track_running_stats=True)
                    (2): ReLU(inplace=True)
                  )
                )
                (1): ConvCompressH(
                  (layers): Sequential(
                    (0): Sequential(
                      (0): LR_PAD()
                      (1): Conv2d(256, 256, kernel_size=(3, 3), stride=(2, 1), padding=(1, 0))
                    )
                    (1): BatchNorm2d(256, eps=1e-05, momentum=0.1, affine=True, track_running_stats=True)
                    (2): ReLU(inplace=True)
                  )
                )
                (2): ConvCompressH(
                  (layers): Sequential(
                    (0): Sequential(
                      (0): LR_PAD()
                      (1): Conv2d(256, 128, kernel_size=(3, 3), stride=(2, 1), padding=(1, 0))
                    )
                    (1): BatchNorm2d(128, eps=1e-05, momentum=0.1, affine=True, track_running_stats=True)
                    (2): ReLU(inplace=True)
                  )
                )
                (3): ConvCompressH(
                  (layers): Sequential(
                    (0): Sequential(
                      (0): LR_PAD()
                      (1): Conv2d(128, 64, kernel_size=(3, 3), stride=(2, 1), padding=(1, 0))
                    )
                    (1): BatchNorm2d(64, eps=1e-05, momentum=0.1, affine=True, track_running_stats=True)
                    (2): ReLU(inplace=True)
                  )
                )
              )
            )
            (2): GlobalHeightConv(
              (layer): Sequential(
                (0): ConvCompressH(
                  (layers): Sequential(
                    (0): Sequential(
                      (0): LR_PAD()
                      (1): Conv2d(1024, 512, kernel_size=(3, 3), stride=(2, 1), padding=(1, 0))
                    )
                    (1): BatchNorm2d(512, eps=1e-05, momentum=0.1, affine=True, track_running_stats=True)
                    (2): ReLU(inplace=True)
                  )
                )
                (1): ConvCompressH(
                  (layers): Sequential(
                    (0): Sequential(
                      (0): LR_PAD()
                      (1): Conv2d(512, 512, kernel_size=(3, 3), stride=(2, 1), padding=(1, 0))
                    )
                    (1): BatchNorm2d(512, eps=1e-05, momentum=0.1, affine=True, track_running_stats=True)
                    (2): ReLU(inplace=True)
                  )
                )
                (2): ConvCompressH(
                  (layers): Sequential(
                    (0): Sequential(
                      (0): LR_PAD()
                      (1): Conv2d(512, 256, kernel_size=(3, 3), stride=(2, 1), padding=(1, 0))
                    )
                    (1): BatchNorm2d(256, eps=1e-05, momentum=0.1, affine=True, track_running_stats=True)
                    (2): ReLU(inplace=True)
                  )
                )
                (3): ConvCompressH(
                  (layers): Sequential(
                    (0): Sequential(
                      (0): LR_PAD()
                      (1): Conv2d(256, 128, kernel_size=(3, 3), stride=(2, 1), padding=(1, 0))
                    )
                    (1): BatchNorm2d(128, eps=1e-05, momentum=0.1, affine=True, track_running_stats=True)
                    (2): ReLU(inplace=True)
                  )
                )
              )
            )
            (3): GlobalHeightConv(
              (layer): Sequential(
                (0): ConvCompressH(
                  (layers): Sequential(
                    (0): Sequential(
                      (0): LR_PAD()
                      (1): Conv2d(2048, 1024, kernel_size=(3, 3), stride=(2, 1), padding=(1, 0))
                    )
                    (1): BatchNorm2d(1024, eps=1e-05, momentum=0.1, affine=True, track_running_stats=True)
                    (2): ReLU(inplace=True)
                  )
                )
                (1): ConvCompressH(
                  (layers): Sequential(
                    (0): Sequential(
                      (0): LR_PAD()
                      (1): Conv2d(1024, 1024, kernel_size=(3, 3), stride=(2, 1), padding=(1, 0))
                    )
                    (1): BatchNorm2d(1024, eps=1e-05, momentum=0.1, affine=True, track_running_stats=True)
                    (2): ReLU(inplace=True)
                  )
                )
                (2): ConvCompressH(
                  (layers): Sequential(
                    (0): Sequential(
                      (0): LR_PAD()
                      (1): Conv2d(1024, 512, kernel_size=(3, 3), stride=(2, 1), padding=(1, 0))
                    )
                    (1): BatchNorm2d(512, eps=1e-05, momentum=0.1, affine=True, track_running_stats=True)
                    (2): ReLU(inplace=True)
                  )
                )
                (3): ConvCompressH(
                  (layers): Sequential(
                    (0): Sequential(
                      (0): LR_PAD()
                      (1): Conv2d(512, 256, kernel_size=(3, 3), stride=(2, 1), padding=(1, 0))
                    )
                    (1): BatchNorm2d(256, eps=1e-05, momentum=0.1, affine=True, track_running_stats=True)
                    (2): ReLU(inplace=True)
                  )
                )
              )
            )
          )
        )
        (bi_rnn): LSTM(1024, 512, num_layers=2, dropout=0.5, bidirectional=True)
        (drop_out): Dropout(p=0.5, inplace=False)
        (linear): Linear(in_features=1024, out_features=12, bias=True)
      )
    )
  )
  (bdb3d_estimation): Bdb3DNet(
    (resnet): DataParallel(
      (module): ResNet(
        (conv1): Conv2d(3, 64, kernel_size=(7, 7), stride=(2, 2), padding=(3, 3), bias=False)
        (bn1): BatchNorm2d(64, eps=1e-05, momentum=0.1, affine=True, track_running_stats=True)
        (relu): ReLU(inplace=True)
        (maxpool): MaxPool2d(kernel_size=3, stride=2, padding=1, dilation=1, ceil_mode=False)
        (layer1): Sequential(
          (0): BasicBlock(
            (conv1): Conv2d(64, 64, kernel_size=(3, 3), stride=(1, 1), padding=(1, 1), bias=False)
            (bn1): BatchNorm2d(64, eps=1e-05, momentum=0.1, affine=True, track_running_stats=True)
            (relu): ReLU(inplace=True)
            (conv2): Conv2d(64, 64, kernel_size=(3, 3), stride=(1, 1), padding=(1, 1), bias=False)
            (bn2): BatchNorm2d(64, eps=1e-05, momentum=0.1, affine=True, track_running_stats=True)
          )
          (1): BasicBlock(
            (conv1): Conv2d(64, 64, kernel_size=(3, 3), stride=(1, 1), padding=(1, 1), bias=False)
            (bn1): BatchNorm2d(64, eps=1e-05, momentum=0.1, affine=True, track_running_stats=True)
            (relu): ReLU(inplace=True)
            (conv2): Conv2d(64, 64, kernel_size=(3, 3), stride=(1, 1), padding=(1, 1), bias=False)
            (bn2): BatchNorm2d(64, eps=1e-05, momentum=0.1, affine=True, track_running_stats=True)
          )
          (2): BasicBlock(
            (conv1): Conv2d(64, 64, kernel_size=(3, 3), stride=(1, 1), padding=(1, 1), bias=False)
            (bn1): BatchNorm2d(64, eps=1e-05, momentum=0.1, affine=True, track_running_stats=True)
            (relu): ReLU(inplace=True)
            (conv2): Conv2d(64, 64, kernel_size=(3, 3), stride=(1, 1), padding=(1, 1), bias=False)
            (bn2): BatchNorm2d(64, eps=1e-05, momentum=0.1, affine=True, track_running_stats=True)
          )
        )
        (layer2): Sequential(
          (0): BasicBlock(
            (conv1): Conv2d(64, 128, kernel_size=(3, 3), stride=(2, 2), padding=(1, 1), bias=False)
            (bn1): BatchNorm2d(128, eps=1e-05, momentum=0.1, affine=True, track_running_stats=True)
            (relu): ReLU(inplace=True)
            (conv2): Conv2d(128, 128, kernel_size=(3, 3), stride=(1, 1), padding=(1, 1), bias=False)
            (bn2): BatchNorm2d(128, eps=1e-05, momentum=0.1, affine=True, track_running_stats=True)
            (downsample): Sequential(
              (0): Conv2d(64, 128, kernel_size=(1, 1), stride=(2, 2), bias=False)
              (1): BatchNorm2d(128, eps=1e-05, momentum=0.1, affine=True, track_running_stats=True)
            )
          )
          (1): BasicBlock(
            (conv1): Conv2d(128, 128, kernel_size=(3, 3), stride=(1, 1), padding=(1, 1), bias=False)
            (bn1): BatchNorm2d(128, eps=1e-05, momentum=0.1, affine=True, track_running_stats=True)
            (relu): ReLU(inplace=True)
            (conv2): Conv2d(128, 128, kernel_size=(3, 3), stride=(1, 1), padding=(1, 1), bias=False)
            (bn2): BatchNorm2d(128, eps=1e-05, momentum=0.1, affine=True, track_running_stats=True)
          )
          (2): BasicBlock(
            (conv1): Conv2d(128, 128, kernel_size=(3, 3), stride=(1, 1), padding=(1, 1), bias=False)
            (bn1): BatchNorm2d(128, eps=1e-05, momentum=0.1, affine=True, track_running_stats=True)
            (relu): ReLU(inplace=True)
            (conv2): Conv2d(128, 128, kernel_size=(3, 3), stride=(1, 1), padding=(1, 1), bias=False)
            (bn2): BatchNorm2d(128, eps=1e-05, momentum=0.1, affine=True, track_running_stats=True)
          )
          (3): BasicBlock(
            (conv1): Conv2d(128, 128, kernel_size=(3, 3), stride=(1, 1), padding=(1, 1), bias=False)
            (bn1): BatchNorm2d(128, eps=1e-05, momentum=0.1, affine=True, track_running_stats=True)
            (relu): ReLU(inplace=True)
            (conv2): Conv2d(128, 128, kernel_size=(3, 3), stride=(1, 1), padding=(1, 1), bias=False)
            (bn2): BatchNorm2d(128, eps=1e-05, momentum=0.1, affine=True, track_running_stats=True)
          )
        )
        (layer3): Sequential(
          (0): BasicBlock(
            (conv1): Conv2d(128, 256, kernel_size=(3, 3), stride=(2, 2), padding=(1, 1), bias=False)
            (bn1): BatchNorm2d(256, eps=1e-05, momentum=0.1, affine=True, track_running_stats=True)
            (relu): ReLU(inplace=True)
            (conv2): Conv2d(256, 256, kernel_size=(3, 3), stride=(1, 1), padding=(1, 1), bias=False)
            (bn2): BatchNorm2d(256, eps=1e-05, momentum=0.1, affine=True, track_running_stats=True)
            (downsample): Sequential(
              (0): Conv2d(128, 256, kernel_size=(1, 1), stride=(2, 2), bias=False)
              (1): BatchNorm2d(256, eps=1e-05, momentum=0.1, affine=True, track_running_stats=True)
            )
          )
          (1): BasicBlock(
            (conv1): Conv2d(256, 256, kernel_size=(3, 3), stride=(1, 1), padding=(1, 1), bias=False)
            (bn1): BatchNorm2d(256, eps=1e-05, momentum=0.1, affine=True, track_running_stats=True)
            (relu): ReLU(inplace=True)
            (conv2): Conv2d(256, 256, kernel_size=(3, 3), stride=(1, 1), padding=(1, 1), bias=False)
            (bn2): BatchNorm2d(256, eps=1e-05, momentum=0.1, affine=True, track_running_stats=True)
          )
          (2): BasicBlock(
            (conv1): Conv2d(256, 256, kernel_size=(3, 3), stride=(1, 1), padding=(1, 1), bias=False)
            (bn1): BatchNorm2d(256, eps=1e-05, momentum=0.1, affine=True, track_running_stats=True)
            (relu): ReLU(inplace=True)
            (conv2): Conv2d(256, 256, kernel_size=(3, 3), stride=(1, 1), padding=(1, 1), bias=False)
            (bn2): BatchNorm2d(256, eps=1e-05, momentum=0.1, affine=True, track_running_stats=True)
          )
          (3): BasicBlock(
            (conv1): Conv2d(256, 256, kernel_size=(3, 3), stride=(1, 1), padding=(1, 1), bias=False)
            (bn1): BatchNorm2d(256, eps=1e-05, momentum=0.1, affine=True, track_running_stats=True)
            (relu): ReLU(inplace=True)
            (conv2): Conv2d(256, 256, kernel_size=(3, 3), stride=(1, 1), padding=(1, 1), bias=False)
            (bn2): BatchNorm2d(256, eps=1e-05, momentum=0.1, affine=True, track_running_stats=True)
          )
          (4): BasicBlock(
            (conv1): Conv2d(256, 256, kernel_size=(3, 3), stride=(1, 1), padding=(1, 1), bias=False)
            (bn1): BatchNorm2d(256, eps=1e-05, momentum=0.1, affine=True, track_running_stats=True)
            (relu): ReLU(inplace=True)
            (conv2): Conv2d(256, 256, kernel_size=(3, 3), stride=(1, 1), padding=(1, 1), bias=False)
            (bn2): BatchNorm2d(256, eps=1e-05, momentum=0.1, affine=True, track_running_stats=True)
          )
          (5): BasicBlock(
            (conv1): Conv2d(256, 256, kernel_size=(3, 3), stride=(1, 1), padding=(1, 1), bias=False)
            (bn1): BatchNorm2d(256, eps=1e-05, momentum=0.1, affine=True, track_running_stats=True)
            (relu): ReLU(inplace=True)
            (conv2): Conv2d(256, 256, kernel_size=(3, 3), stride=(1, 1), padding=(1, 1), bias=False)
            (bn2): BatchNorm2d(256, eps=1e-05, momentum=0.1, affine=True, track_running_stats=True)
          )
        )
        (layer4): Sequential(
          (0): BasicBlock(
            (conv1): Conv2d(256, 512, kernel_size=(3, 3), stride=(2, 2), padding=(1, 1), bias=False)
            (bn1): BatchNorm2d(512, eps=1e-05, momentum=0.1, affine=True, track_running_stats=True)
            (relu): ReLU(inplace=True)
            (conv2): Conv2d(512, 512, kernel_size=(3, 3), stride=(1, 1), padding=(1, 1), bias=False)
            (bn2): BatchNorm2d(512, eps=1e-05, momentum=0.1, affine=True, track_running_stats=True)
            (downsample): Sequential(
              (0): Conv2d(256, 512, kernel_size=(1, 1), stride=(2, 2), bias=False)
              (1): BatchNorm2d(512, eps=1e-05, momentum=0.1, affine=True, track_running_stats=True)
            )
          )
          (1): BasicBlock(
            (conv1): Conv2d(512, 512, kernel_size=(3, 3), stride=(1, 1), padding=(1, 1), bias=False)
            (bn1): BatchNorm2d(512, eps=1e-05, momentum=0.1, affine=True, track_running_stats=True)
            (relu): ReLU(inplace=True)
            (conv2): Conv2d(512, 512, kernel_size=(3, 3), stride=(1, 1), padding=(1, 1), bias=False)
            (bn2): BatchNorm2d(512, eps=1e-05, momentum=0.1, affine=True, track_running_stats=True)
          )
          (2): BasicBlock(
            (conv1): Conv2d(512, 512, kernel_size=(3, 3), stride=(1, 1), padding=(1, 1), bias=False)
            (bn1): BatchNorm2d(512, eps=1e-05, momentum=0.1, affine=True, track_running_stats=True)
            (relu): ReLU(inplace=True)
            (conv2): Conv2d(512, 512, kernel_size=(3, 3), stride=(1, 1), padding=(1, 1), bias=False)
            (bn2): BatchNorm2d(512, eps=1e-05, momentum=0.1, affine=True, track_running_stats=True)
          )
        )
        (avgpool): AvgPool2d(kernel_size=7, stride=1, padding=0)
      )
    )
    (relnet): RelationNet(
      (fc_g): Linear(in_features=64, out_features=16, bias=True)
      (threshold): Threshold(threshold=1e-06, value=1e-06)
      (softmax): Softmax(dim=1)
      (fc_K): Linear(in_features=2048, out_features=1024, bias=True)
      (fc_Q): Linear(in_features=2048, out_features=1024, bias=True)
      (conv_s): Conv1d(1, 1, kernel_size=(1,), stride=(1,))
    )
    (fc1): Linear(in_features=2105, out_features=128, bias=True)
    (fc2): Linear(in_features=128, out_features=3, bias=True)
    (fc3): Linear(in_features=2105, out_features=128, bias=True)
    (fc4): Linear(in_features=128, out_features=12, bias=True)
    (fc5): Linear(in_features=2105, out_features=128, bias=True)
    (fc_centroid): Linear(in_features=128, out_features=12, bias=True)
    (fc_off_1): Linear(in_features=2105, out_features=128, bias=True)
    (fc_off_2): Linear(in_features=128, out_features=2, bias=True)
    (relu_1): LeakyReLU(negative_slope=0.2)
    (dropout_1): Dropout(p=0.5, inplace=False)
  )
  (shape_encoder): DataParallel(
    (module): LIEN(
      (encoder): ResNet_Full(
        (conv1): Conv2d(3, 64, kernel_size=(7, 7), stride=(2, 2), padding=(3, 3), bias=False)
        (bn1): BatchNorm2d(64, eps=1e-05, momentum=0.1, affine=True, track_running_stats=True)
        (relu): ReLU(inplace=True)
        (maxpool): MaxPool2d(kernel_size=3, stride=2, padding=1, dilation=1, ceil_mode=False)
        (layer1): Sequential(
          (0): BasicBlock(
            (conv1): Conv2d(64, 64, kernel_size=(3, 3), stride=(1, 1), padding=(1, 1), bias=False)
            (bn1): BatchNorm2d(64, eps=1e-05, momentum=0.1, affine=True, track_running_stats=True)
            (relu): ReLU(inplace=True)
            (conv2): Conv2d(64, 64, kernel_size=(3, 3), stride=(1, 1), padding=(1, 1), bias=False)
            (bn2): BatchNorm2d(64, eps=1e-05, momentum=0.1, affine=True, track_running_stats=True)
          )
          (1): BasicBlock(
            (conv1): Conv2d(64, 64, kernel_size=(3, 3), stride=(1, 1), padding=(1, 1), bias=False)
            (bn1): BatchNorm2d(64, eps=1e-05, momentum=0.1, affine=True, track_running_stats=True)
            (relu): ReLU(inplace=True)
            (conv2): Conv2d(64, 64, kernel_size=(3, 3), stride=(1, 1), padding=(1, 1), bias=False)
            (bn2): BatchNorm2d(64, eps=1e-05, momentum=0.1, affine=True, track_running_stats=True)
          )
        )
        (layer2): Sequential(
          (0): BasicBlock(
            (conv1): Conv2d(64, 128, kernel_size=(3, 3), stride=(2, 2), padding=(1, 1), bias=False)
            (bn1): BatchNorm2d(128, eps=1e-05, momentum=0.1, affine=True, track_running_stats=True)
            (relu): ReLU(inplace=True)
            (conv2): Conv2d(128, 128, kernel_size=(3, 3), stride=(1, 1), padding=(1, 1), bias=False)
            (bn2): BatchNorm2d(128, eps=1e-05, momentum=0.1, affine=True, track_running_stats=True)
            (downsample): Sequential(
              (0): Conv2d(64, 128, kernel_size=(1, 1), stride=(2, 2), bias=False)
              (1): BatchNorm2d(128, eps=1e-05, momentum=0.1, affine=True, track_running_stats=True)
            )
          )
          (1): BasicBlock(
            (conv1): Conv2d(128, 128, kernel_size=(3, 3), stride=(1, 1), padding=(1, 1), bias=False)
            (bn1): BatchNorm2d(128, eps=1e-05, momentum=0.1, affine=True, track_running_stats=True)
            (relu): ReLU(inplace=True)
            (conv2): Conv2d(128, 128, kernel_size=(3, 3), stride=(1, 1), padding=(1, 1), bias=False)
            (bn2): BatchNorm2d(128, eps=1e-05, momentum=0.1, affine=True, track_running_stats=True)
          )
        )
        (layer3): Sequential(
          (0): BasicBlock(
            (conv1): Conv2d(128, 256, kernel_size=(3, 3), stride=(2, 2), padding=(1, 1), bias=False)
            (bn1): BatchNorm2d(256, eps=1e-05, momentum=0.1, affine=True, track_running_stats=True)
            (relu): ReLU(inplace=True)
            (conv2): Conv2d(256, 256, kernel_size=(3, 3), stride=(1, 1), padding=(1, 1), bias=False)
            (bn2): BatchNorm2d(256, eps=1e-05, momentum=0.1, affine=True, track_running_stats=True)
            (downsample): Sequential(
              (0): Conv2d(128, 256, kernel_size=(1, 1), stride=(2, 2), bias=False)
              (1): BatchNorm2d(256, eps=1e-05, momentum=0.1, affine=True, track_running_stats=True)
            )
          )
          (1): BasicBlock(
            (conv1): Conv2d(256, 256, kernel_size=(3, 3), stride=(1, 1), padding=(1, 1), bias=False)
            (bn1): BatchNorm2d(256, eps=1e-05, momentum=0.1, affine=True, track_running_stats=True)
            (relu): ReLU(inplace=True)
            (conv2): Conv2d(256, 256, kernel_size=(3, 3), stride=(1, 1), padding=(1, 1), bias=False)
            (bn2): BatchNorm2d(256, eps=1e-05, momentum=0.1, affine=True, track_running_stats=True)
          )
        )
        (layer4): Sequential(
          (0): BasicBlock(
            (conv1): Conv2d(256, 512, kernel_size=(3, 3), stride=(2, 2), padding=(1, 1), bias=False)
            (bn1): BatchNorm2d(512, eps=1e-05, momentum=0.1, affine=True, track_running_stats=True)
            (relu): ReLU(inplace=True)
            (conv2): Conv2d(512, 512, kernel_size=(3, 3), stride=(1, 1), padding=(1, 1), bias=False)
            (bn2): BatchNorm2d(512, eps=1e-05, momentum=0.1, affine=True, track_running_stats=True)
            (downsample): Sequential(
              (0): Conv2d(256, 512, kernel_size=(1, 1), stride=(2, 2), bias=False)
              (1): BatchNorm2d(512, eps=1e-05, momentum=0.1, affine=True, track_running_stats=True)
            )
          )
          (1): BasicBlock(
            (conv1): Conv2d(512, 512, kernel_size=(3, 3), stride=(1, 1), padding=(1, 1), bias=False)
            (bn1): BatchNorm2d(512, eps=1e-05, momentum=0.1, affine=True, track_running_stats=True)
            (relu): ReLU(inplace=True)
            (conv2): Conv2d(512, 512, kernel_size=(3, 3), stride=(1, 1), padding=(1, 1), bias=False)
            (bn2): BatchNorm2d(512, eps=1e-05, momentum=0.1, affine=True, track_running_stats=True)
          )
        )
        (avgpool): AvgPool2d(kernel_size=7, stride=7, padding=0)
        (fc): Linear(in_features=512, out_features=1536, bias=True)
      )
      (mlp): Sequential(
        (0): Linear(in_features=1593, out_features=1536, bias=True)
        (1): LeakyReLU(negative_slope=0.2, inplace=True)
        (2): Linear(in_features=1536, out_features=1536, bias=True)
        (3): LeakyReLU(negative_slope=0.2, inplace=True)
        (4): Linear(in_features=1536, out_features=1344, bias=True)
      )
    )
  )
  (shape_decoder): DataParallel(
    (module): LDIF(
      (decoder): OccNetDecoder(
        (fc1): Linear(in_features=3, out_features=32, bias=True)
        (resnet): BatchedOccNetResnetLayer(
          (bn1): BatchedCBatchNormLayer(
            (fc_beta): Linear(in_features=32, out_features=32, bias=True)
            (fc_gamma): Linear(in_features=32, out_features=32, bias=True)
          )
          (fc1): Linear(in_features=32, out_features=32, bias=True)
          (bn2): BatchedCBatchNormLayer(
            (fc_beta): Linear(in_features=32, out_features=32, bias=True)
            (fc_gamma): Linear(in_features=32, out_features=32, bias=True)
          )
          (fc2): Linear(in_features=32, out_features=32, bias=True)
        )
        (bn): BatchedCBatchNormLayer(
          (fc_beta): Linear(in_features=32, out_features=32, bias=True)
          (fc_gamma): Linear(in_features=32, out_features=32, bias=True)
        )
        (fc2): Linear(in_features=32, out_features=1, bias=True)
      )
    )
  )
  (scene_gcn): RelationSGCN(
    (obj_embedding): Sequential(
      (0): Linear(in_features=2658, out_features=512, bias=True)
      (1): ReLU(inplace=True)
      (2): Linear(in_features=512, out_features=512, bias=True)
    )
    (rel_embedding): Sequential(
      (0): Linear(in_features=85, out_features=512, bias=True)
      (1): ReLU(inplace=True)
      (2): Linear(in_features=512, out_features=512, bias=True)
    )
    (lo_embedding): Sequential(
      (0): Linear(in_features=34, out_features=512, bias=True)
      (1): ReLU(inplace=True)
      (2): Linear(in_features=512, out_features=512, bias=True)
    )
    (gcn_collect_feat): ModuleList(
      (0): _GraphConvolutionLayer_Collect(
        (collect_units): ModuleList(
          (0): _Collection_Unit(
            (fc): Linear(in_features=512, out_features=512, bias=True)
          )
          (1): _Collection_Unit(
            (fc): Linear(in_features=512, out_features=512, bias=True)
          )
          (2): _Collection_Unit(
            (fc): Linear(in_features=512, out_features=512, bias=True)
          )
          (3): _Collection_Unit(
            (fc): Linear(in_features=512, out_features=512, bias=True)
          )
          (4): _Collection_Unit(
            (fc): Linear(in_features=512, out_features=512, bias=True)
          )
        )
      )
    )
    (gcn_update_feat): ModuleList(
      (0): _GraphConvolutionLayer_Update(
        (update_units): ModuleList(
          (0): _Update_Unit()
          (1): _Update_Unit()
        )
      )
    )
    (relu): LeakyReLU(negative_slope=0.2)
    (dropout): Dropout(p=0.5, inplace=False)
    (fc1): Linear(in_features=512, out_features=256, bias=True)
    (fc2): Linear(in_features=256, out_features=3, bias=True)
    (fc3): Linear(in_features=512, out_features=256, bias=True)
    (fc4): Linear(in_features=256, out_features=12, bias=True)
    (fc5): Linear(in_features=512, out_features=256, bias=True)
    (fc_centroid): Linear(in_features=256, out_features=12, bias=True)
    (fc_off_1): Linear(in_features=512, out_features=256, bias=True)
    (fc_off_2): Linear(in_features=256, out_features=2, bias=True)
    (fc_obj_obj_rot_1): Linear(in_features=512, out_features=256, bias=True)
    (fc_obj_obj_rot_2): Linear(in_features=256, out_features=8, bias=True)
    (fc_obj_obj_dis_1): Linear(in_features=512, out_features=256, bias=True)
    (fc_obj_obj_dis_2): Linear(in_features=256, out_features=1, bias=True)
    (fc_obj_obj_tch_1): Linear(in_features=512, out_features=256, bias=True)
    (fc_obj_obj_tch_2): Linear(in_features=256, out_features=1, bias=True)
    (fc_obj_wall_rot_1): Linear(in_features=512, out_features=256, bias=True)
    (fc_obj_wall_rot_2): Linear(in_features=256, out_features=8, bias=True)
    (fc_obj_wall_tch_1): Linear(in_features=512, out_features=256, bias=True)
    (fc_obj_wall_tch_2): Linear(in_features=256, out_features=1, bias=True)
    (fc_obj_floor_tch_1): Linear(in_features=512, out_features=256, bias=True)
    (fc_obj_floor_tch_2): Linear(in_features=256, out_features=1, bias=True)
    (fc_obj_ceil_tch_1): Linear(in_features=512, out_features=256, bias=True)
    (fc_obj_ceil_tch_2): Linear(in_features=256, out_features=1, bias=True)
    (fc_obj_in_room_1): Linear(in_features=512, out_features=256, bias=True)
    (fc_obj_in_room_2): Linear(in_features=256, out_features=1, bias=True)
  )
)
INFO:test:Begin to finetune from the existing weight.
INFO:test:Loading checkpoint from out/relation_scene_gcn/21091021124435/model_best.pth.
INFO:test:{'layout_estimation'} subnet missed.
INFO:test:Weights for finetuning loaded.
INFO:test:Loading checkpoint from out/layout_estimation/21022217101943/model_best.pth.
INFO:test:{'scene_gcn', 'bdb3d_estimation', 'shape_encoder', 'shape_decoder'} subnet missed.
…
